tests/model/model.pt (torch, 21882 bytes, 5 tensors)

weight f4 [2, 5]
000000 d9 dc 06 3e 76 1d db be 27 d6 f8 bd 89 d5 c2 be
       0.13170184 -0.42795914 -0.12150221 -0.3805354
000010 8a af 8d be 4e c0 5f bd cf 85 80 3e 35 09 35 bd
       -0.27672988 -0.054626755 0.25102088 -0.044198234
000020 19 ab 61 3d a8 e5 40 be
       0.055094812 -0.18837607

bias f4 [2]
000000 28 a9 cf 3e b8 84 95 be
       0.40558743 -0.2920282

weight f4 [1, 2, 1]
000000 90 5b 0b 3f 98 63 60 3e
       0.5443659 0.21912992

weight f4 [6, 1]
000000 a5 d9 d1 be 23 4c b1 be 8c 17 3d 3e 80 b4 16 bf
       -0.40986362 -0.346284 0.18466014 -0.5886917
000010 63 2a 40 bf 28 7e ff be
       -0.75064677 -0.49900937

bias f4 [6]
000000 5f 50 02 bf 25 d8 02 3e c0 bc b2 bd d3 a3 33 3e
       -0.50903887 0.12777765 -0.087274075 0.17542963
000010 fd 3b 66 bf e4 03 6c 3f
       -0.89935285 0.92193437
